Running on Device cuda:0
782 79 16
----------------------------------------------------------------
        Layer (type)               Output Shape         Param #
================================================================
            Conv2d-1            [-1, 6, 28, 28]             456
              Tanh-2            [-1, 6, 28, 28]               0
         AvgPool2d-3            [-1, 6, 14, 14]               0
            Conv2d-4           [-1, 16, 10, 10]           2,416
              Tanh-5           [-1, 16, 10, 10]               0
         AvgPool2d-6             [-1, 16, 5, 5]               0
            Linear-7                  [-1, 200]          80,200
================================================================
Total params: 83,072
Trainable params: 83,072
Non-trainable params: 0
----------------------------------------------------------------
Input size (MB): 0.01
Forward/backward pass size (MB): 0.11
Params size (MB): 0.32
Estimated Total Size (MB): 0.44
----------------------------------------------------------------
None
Epoch: 0/100, Train acc: 2.34, Valid acc: 2.45
…
