Running on Device cuda:0
782 79 8
----------------------------------------------------------------
        Layer (type)               Output Shape         Param #
================================================================
            Conv2d-1         [-1, 64, 224, 224]           1,728
       BatchNorm2d-2         [-1, 64, 224, 224]             128
         MaxPool2d-3         [-1, 64, 112, 112]               0
            Conv2d-4           [-1, 64, 56, 56]          36,864
       BatchNorm2d-5           [-1, 64, 56, 56]             128
            Conv2d-6           [-1, 64, 56, 56]          36,864
       BatchNorm2d-7           [-1, 64, 56, 56]             128
            Conv2d-8           [-1, 64, 56, 56]           4,096
       BatchNorm2d-9           [-1, 64, 56, 56]             128
       BasicBlock-10           [-1, 64, 56, 56]               0
           Conv2d-11           [-1, 64, 56, 56]          36,864
      BatchNorm2d-12           [-1, 64, 56, 56]             128
           Conv2d-13           [-1, 64, 56, 56]          36,864
      BatchNorm2d-14           [-1, 64, 56, 56]             128
       BasicBlock-15           [-1, 64, 56, 56]               0
           Conv2d-16           [-1, 64, 56, 56]          36,864
      BatchNorm2d-17           [-1, 64, 56, 56]             128
           Conv2d-18           [-1, 64, 56, 56]          36,864
      BatchNorm2d-19           [-1, 64, 56, 56]             128
       BasicBlock-20           [-1, 64, 56, 56]               0
           Conv2d-21          [-1, 128, 28, 28]          73,728
      BatchNorm2d-22          [-1, 128, 28, 28]             256
           Conv2d-23          [-1, 128, 28, 28]         147,456
      BatchNorm2d-24          [-1, 128, 28, 28]             256
           Conv2d-25          [-1, 128, 28, 28]           8,192
      BatchNorm2d-26          [-1, 128, 28, 28]             256
       BasicBlock-27          [-1, 128, 28, 28]               0
           Conv2d-28          [-1, 128, 28, 28]         147,456
      BatchNorm2d-29          [-1, 128, 28, 28]             256
           Conv2d-30          [-1, 128, 28, 28]         147,456
      BatchNorm2d-31          [-1, 128, 28, 28]             256
       BasicBlock-32          [-1, 128, 28, 28]               0
           Conv2d-33          [-1, 128, 28, 28]         147,456
      BatchNorm2d-34          [-1, 128, 28, 28]             256
           Conv2d-35          [-1, 128, 28, 28]         147,456
      BatchNorm2d-36          [-1, 128, 28, 28]             256
       BasicBlock-37          [-1, 128, 28, 28]               0
           Conv2d-38          [-1, 128, 28, 28]         147,456
      BatchNorm2d-39          [-1, 128, 28, 28]             256
           Conv2d-40          [-1, 128, 28, 28]         147,456
      BatchNorm2d-41          [-1, 128, 28, 28]             256
       BasicBlock-42          [-1, 128, 28, 28]               0
           Conv2d-43          [-1, 256, 14, 14]         294,912
      BatchNorm2d-44          [-1, 256, 14, 14]             512
           Conv2d-45          [-1, 256, 14, 14]         589,824
      BatchNorm2d-46          [-1, 256, 14, 14]             512
           Conv2d-47          [-1, 256, 14, 14]          32,768
      BatchNorm2d-48          [-1, 256, 14, 14]             512
       BasicBlock-49          [-1, 256, 14, 14]               0
           Conv2d-50          [-1, 256, 14, 14]         589,824
      BatchNorm2d-51          [-1, 256, 14, 14]             512
           Conv2d-52          [-1, 256, 14, 14]         589,824
      BatchNorm2d-53          [-1, 256, 14, 14]             512
       BasicBlock-54          [-1, 256, 14, 14]               0
           Conv2d-55          [-1, 256, 14, 14]         589,824
      BatchNorm2d-56          [-1, 256, 14, 14]             512
           Conv2d-57          [-1, 256, 14, 14]         589,824
      BatchNorm2d-58          [-1, 256, 14, 14]             512
       BasicBlock-59          [-1, 256, 14, 14]               0
           Conv2d-60          [-1, 256, 14, 14]         589,824
      BatchNorm2d-61          [-1, 256, 14, 14]             512
           Conv2d-62          [-1, 256, 14, 14]         589,824
      BatchNorm2d-63          [-1, 256, 14, 14]             512
       BasicBlock-64          [-1, 256, 14, 14]               0
           Conv2d-65          [-1, 256, 14, 14]         589,824
      BatchNorm2d-66          [-1, 256, 14, 14]             512
           Conv2d-67          [-1, 256, 14, 14]         589,824
      BatchNorm2d-68          [-1, 256, 14, 14]             512
       BasicBlock-69          [-1, 256, 14, 14]               0
           Conv2d-70          [-1, 256, 14, 14]         589,824
      BatchNorm2d-71          [-1, 256, 14, 14]             512
           Conv2d-72          [-1, 256, 14, 14]         589,824
      BatchNorm2d-73          [-1, 256, 14, 14]             512
       BasicBlock-74          [-1, 256, 14, 14]               0
           Conv2d-75            [-1, 512, 7, 7]       1,179,648
      BatchNorm2d-76            [-1, 512, 7, 7]           1,024
           Conv2d-77            [-1, 512, 7, 7]       2,359,296
      BatchNorm2d-78            [-1, 512, 7, 7]           1,024
           Conv2d-79            [-1, 512, 7, 7]         131,072
      BatchNorm2d-80            [-1, 512, 7, 7]           1,024
       BasicBlock-81            [-1, 512, 7, 7]               0
           Conv2d-82            [-1, 512, 7, 7]       2,359,296
      BatchNorm2d-83            [-1, 512, 7, 7]           1,024
           Conv2d-84            [-1, 512, 7, 7]       2,359,296
      BatchNorm2d-85            [-1, 512, 7, 7]           1,024
       BasicBlock-86            [-1, 512, 7, 7]               0
           Conv2d-87            [-1, 512, 7, 7]       2,359,296
      BatchNorm2d-88            [-1, 512, 7, 7]           1,024
           Conv2d-89            [-1, 512, 7, 7]       2,359,296
      BatchNorm2d-90            [-1, 512, 7, 7]           1,024
       BasicBlock-91            [-1, 512, 7, 7]               0
AdaptiveAvgPool2d-92            [-1, 512, 1, 1]               0
           Linear-93                  [-1, 200]         102,600
================================================================
Total params: 21,383,816
Trainable params: 21,383,816
Non-trainable params: 0
----------------------------------------------------------------
Input size (MB): 0.57
Forward/backward pass size (MB): 113.51
Params size (MB): 81.57
Estimated Total Size (MB): 195.66
----------------------------------------------------------------
None
Initial Loss is 5.688774585723877
…
