Running on Device cuda:0
Files already downloaded and verified
Files already downloaded and verified
Files already downloaded and verified
----------------------------------------------------------------
        Layer (type)               Output Shape         Param #
================================================================
           Dropout-1            [-1, 3, 32, 32]               0
            Conv2d-2            [-1, 6, 28, 28]             456
              Tanh-3            [-1, 6, 28, 28]               0
       BatchNorm2d-4            [-1, 6, 28, 28]              12
           Dropout-5            [-1, 6, 28, 28]               0
         AvgPool2d-6            [-1, 6, 14, 14]               0
            Conv2d-7           [-1, 16, 10, 10]           2,416
              Tanh-8           [-1, 16, 10, 10]               0
       BatchNorm2d-9           [-1, 16, 10, 10]              32
          Dropout-10           [-1, 16, 10, 10]               0
        AvgPool2d-11             [-1, 16, 5, 5]               0
           Linear-12                  [-1, 120]          48,120
             Tanh-13                  [-1, 120]               0
      BatchNorm1d-14                  [-1, 120]             240
          Dropout-15                  [-1, 120]               0
           Linear-16                   [-1, 84]          10,164
             Tanh-17                   [-1, 84]               0
      BatchNorm1d-18                   [-1, 84]             168
          Dropout-19                   [-1, 84]               0
           Linear-20                   [-1, 10]             850
================================================================
Total params: 62,458
Trainable params: 62,458
Non-trainable params: 0
----------------------------------------------------------------
Input size (MB): 0.01
Forward/backward pass size (MB): 0.23
Params size (MB): 0.24
Estimated Total Size (MB): 0.48
----------------------------------------------------------------
None
Epoch: 0/200, Train acc: 29.80, Valid acc: 30.00
…
