Running on Device cuda:0
Files already downloaded and verified
Files already downloaded and verified
Files already downloaded and verified
----------------------------------------------------------------
        Layer (type)               Output Shape         Param #
================================================================
           Dropout-1            [-1, 3, 32, 32]               0
            Conv2d-2            [-1, 6, 28, 28]             456
              Tanh-3            [-1, 6, 28, 28]               0
           Dropout-4            [-1, 6, 28, 28]               0
         AvgPool2d-5            [-1, 6, 14, 14]               0
            Conv2d-6           [-1, 16, 10, 10]           2,416
              Tanh-7           [-1, 16, 10, 10]               0
           Dropout-8           [-1, 16, 10, 10]               0
         AvgPool2d-9             [-1, 16, 5, 5]               0
           Linear-10                  [-1, 120]          48,120
             Tanh-11                  [-1, 120]               0
          Dropout-12                  [-1, 120]               0
           Linear-13                   [-1, 84]          10,164
             Tanh-14                   [-1, 84]               0
          Dropout-15                   [-1, 84]               0
           Linear-16                   [-1, 10]             850
================================================================
Total params: 62,006
Trainable params: 62,006
Non-trainable params: 0
----------------------------------------------------------------
Input size (MB): 0.01
Forward/backward pass size (MB): 0.18
Params size (MB): 0.24
Estimated Total Size (MB): 0.43
----------------------------------------------------------------
None
Epoch: 0/200, Train acc: 24.99, Valid acc: 25.28
…
