Running on Device cuda:0
Files already downloaded and verified
Files already downloaded and verified
Files already downloaded and verified
----------------------------------------------------------------
        Layer (type)               Output Shape         Param #
================================================================
            Conv2d-1            [-1, 6, 28, 28]             456
              Tanh-2            [-1, 6, 28, 28]               0
         AvgPool2d-3            [-1, 6, 14, 14]               0
            Conv2d-4           [-1, 16, 10, 10]           2,416
              Tanh-5           [-1, 16, 10, 10]               0
         AvgPool2d-6             [-1, 16, 5, 5]               0
            Linear-7                  [-1, 120]          48,120
              Tanh-8                  [-1, 120]               0
            Linear-9                   [-1, 84]          10,164
             Tanh-10                   [-1, 84]               0
           Linear-11                   [-1, 10]             850
================================================================
Total params: 62,006
Trainable params: 62,006
Non-trainable params: 0
----------------------------------------------------------------
Input size (MB): 0.01
Forward/backward pass size (MB): 0.11
Params size (MB): 0.24
Estimated Total Size (MB): 0.36
----------------------------------------------------------------
None
Epoch: 0/200, Train acc: 32.19, Valid acc: 32.40
…
