Running on Device cuda:0
Files already downloaded and verified
Files already downloaded and verified
Files already downloaded and verified
----------------------------------------------------------------
        Layer (type)               Output Shape         Param #
================================================================
            Conv2d-1            [-1, 6, 28, 28]             456
         LeakyReLU-2            [-1, 6, 28, 28]               0
       BatchNorm2d-3            [-1, 6, 28, 28]              12
         AvgPool2d-4            [-1, 6, 14, 14]               0
            Conv2d-5           [-1, 16, 10, 10]           2,416
         LeakyReLU-6           [-1, 16, 10, 10]               0
       BatchNorm2d-7           [-1, 16, 10, 10]              32
           Dropout-8           [-1, 16, 10, 10]               0
         AvgPool2d-9             [-1, 16, 5, 5]               0
           Linear-10                  [-1, 120]          48,120
        LeakyReLU-11                  [-1, 120]               0
      BatchNorm1d-12                  [-1, 120]             240
           Linear-13                   [-1, 84]          10,164
        LeakyReLU-14                   [-1, 84]               0
      BatchNorm1d-15                   [-1, 84]             168
           Linear-16                   [-1, 10]             850
================================================================
Total params: 62,458
Trainable params: 62,458
Non-trainable params: 0
----------------------------------------------------------------
Input size (MB): 0.01
Forward/backward pass size (MB): 0.17
Params size (MB): 0.24
Estimated Total Size (MB): 0.42
----------------------------------------------------------------
None
Epoch: 0/200 Test acc: 10.09, Valid acc: 10.74, Train acc: 10.18
…
