Running on Device cuda:0
782 79 16
----------------------------------------------------------------
        Layer (type)               Output Shape         Param #
================================================================
            Conv2d-1         [-1, 64, 112, 112]           9,408
       BatchNorm2d-2         [-1, 64, 112, 112]             128
         Dropout2d-3         [-1, 64, 112, 112]               0
              ReLU-4         [-1, 64, 112, 112]               0
         MaxPool2d-5           [-1, 64, 56, 56]               0
       NonResidual-6           [-1, 64, 56, 56]               0
            Conv2d-7           [-1, 64, 56, 56]          36,864
       BatchNorm2d-8           [-1, 64, 56, 56]             128
         Dropout2d-9           [-1, 64, 56, 56]               0
             ReLU-10           [-1, 64, 56, 56]               0
           Conv2d-11           [-1, 64, 56, 56]          36,864
      BatchNorm2d-12           [-1, 64, 56, 56]             128
        Dropout2d-13           [-1, 64, 56, 56]               0
             ReLU-14           [-1, 64, 56, 56]               0
         Residual-15           [-1, 64, 56, 56]               0
           Conv2d-16          [-1, 128, 28, 28]          73,728
      BatchNorm2d-17          [-1, 128, 28, 28]             256
        Dropout2d-18          [-1, 128, 28, 28]               0
             ReLU-19          [-1, 128, 28, 28]               0
           Conv2d-20          [-1, 128, 28, 28]         147,456
      BatchNorm2d-21          [-1, 128, 28, 28]             256
        Dropout2d-22          [-1, 128, 28, 28]               0
           Conv2d-23          [-1, 128, 28, 28]           8,192
      BatchNorm2d-24          [-1, 128, 28, 28]             256
        Dropout2d-25          [-1, 128, 28, 28]               0
             ReLU-26          [-1, 128, 28, 28]               0
         Residual-27          [-1, 128, 28, 28]               0
           Conv2d-28          [-1, 256, 14, 14]         294,912
      BatchNorm2d-29          [-1, 256, 14, 14]             512
        Dropout2d-30          [-1, 256, 14, 14]               0
             ReLU-31          [-1, 256, 14, 14]               0
           Conv2d-32          [-1, 256, 14, 14]         589,824
      BatchNorm2d-33          [-1, 256, 14, 14]             512
        Dropout2d-34          [-1, 256, 14, 14]               0
           Conv2d-35          [-1, 256, 14, 14]          32,768
      BatchNorm2d-36          [-1, 256, 14, 14]             512
        Dropout2d-37          [-1, 256, 14, 14]               0
             ReLU-38          [-1, 256, 14, 14]               0
         Residual-39          [-1, 256, 14, 14]               0
           Conv2d-40            [-1, 512, 7, 7]       1,179,648
      BatchNorm2d-41            [-1, 512, 7, 7]           1,024
        Dropout2d-42            [-1, 512, 7, 7]               0
             ReLU-43            [-1, 512, 7, 7]               0
           Conv2d-44            [-1, 512, 7, 7]       2,359,296
      BatchNorm2d-45            [-1, 512, 7, 7]           1,024
        Dropout2d-46            [-1, 512, 7, 7]               0
           Conv2d-47            [-1, 512, 7, 7]         131,072
      BatchNorm2d-48            [-1, 512, 7, 7]           1,024
        Dropout2d-49            [-1, 512, 7, 7]               0
             ReLU-50            [-1, 512, 7, 7]               0
         Residual-51            [-1, 512, 7, 7]               0
AdaptiveAvgPool2d-52            [-1, 512, 1, 1]               0
           Linear-53                  [-1, 200]         102,600
================================================================
Total params: 5,008,392
Trainable params: 5,008,392
Non-trainable params: 0
----------------------------------------------------------------
Input size (MB): 0.57
Forward/backward pass size (MB): 57.43
Params size (MB): 19.11
Estimated Total Size (MB): 77.11
----------------------------------------------------------------
None
Training Started
…
